value-based method/p1_navigation/checkpoint_dqn.pth (torch_old, 307259 bytes, 6 tensors)

fc1.weight f4 [256, 37]
0.07955028 0.03126292 -0.1723231 0.079385065 -0.21213338 -0.017298616 0.0088749025 0.20881811
0.10989658 -0.024878921 0.07952287 0.043414958 -0.41342714 -0.3106336 -1.1675111 0.044386245
-0.037808716 0.2030964 -0.07617286 -0.043722864 -0.045962777 0.049228184 0.021350838 0.42601994
-0.16562122 0.021147627 0.16628182 0.007208831 -0.19247676 0.13292821 -0.12475728 0.122524686
-0.017738916 0.0088338265 -0.10628059 -0.17295593 -0.0575204 0.39870465 -0.47241634 0.025575079
-0.37431535 -1.5579572 -0.08078399 -0.11843227 -0.100565165 0.09656419 0.04417329 -0.010119298
0.025723783 0.057046004 0.09048017 0.12196918 0.098348774 0.043376174 -0.0069208895 0.044790454
-0.100073144 -0.21511199 -0.076469295 -0.009963586 0.072017185 0.117691986 -0.12722209 0.10760105
0.15079063 -0.013119991 0.227831 0.13397892 0.07778316 0.06535464 -0.16453746 -0.23752204
0.016078064 0.006162526 0.021959968 0.04937789 0.21500355 -0.10589708 -0.23620611 -0.646063
0.035987247 0.24525882 0.17137267 -0.32027537 0.081744924 -0.002926793 -0.023660073 -0.20592831
0.14120193 -0.28515387 0.05689694 0.15103647 0.18785164 0.106841765 -0.3560092 -0.097121224
0.1748176 0.119916365 -0.15651195 -0.6061451 0.12823324 0.28690457 0.07980669 -0.2611272
-0.3216678 0.156394 -0.15218501 -0.1662568 -0.02544074 -0.0031735057 -0.008998804 0.0087031415
-0.10528307 0.2611047 0.1380838 -0.6686039 -0.05943111 -0.19127068 0.23232684 -0.15262651
-0.32814342 -0.02557093 -0.08571558 0.18083443 -0.34724212 -0.23624808 0.07036999 0.049809597
-0.15255034 -0.24164483 -0.1217363 0.03001667 -0.17497748 0.0087500205 0.18505259 -0.39870992
-0.33595744 -0.008279977 0.2394783 0.10192628 0.14399822 0.07440825 0.39906824 -0.06889701
-0.41102085 -0.13991678 0.11373045 -0.08014637 -0.0017087881 -0.060899206 -0.12717813 -0.0770183
-0.039031614 0.38816857 -0.22807342 -0.740514 -0.3048289 -1.5664768 0.027384657 -0.01782699
0.0139185395 -0.055518325 -0.032389317 -0.014713724 0.0041498053 0.07410036 -0.009832036 0.22219089
-0.00936947 -0.07607296 0.17933035 0.108753204 0.20770462 0.13214923 0.093666345 0.14876339
0.036410652 -0.1868399 0.19231671 -0.099558555 0.07940697 -0.015432696 0.17652942 0.026265465
0.006284849 0.026880177 -0.14720353 0.12919101 -0.07328256 0.015970118 0.10292214 0.37527287
-0.17406346 -0.12356805 -0.99475586 -0.12987499 -0.06097264 -0.0026007188 -0.08087874 0.07679461
0.08310058 -0.046016045 -0.042162493 -0.15480909 -0.14246234 -0.089500636 0.046925623 0.24178593
0.10652379 0.033840556 -0.19342965 0.1199162 0.11377589 0.11205666 -0.13568678 0.10199787
-0.2681693 -0.19632079 0.14249332 -0.70344734 -0.15230212 0.04839681 -0.17288058 0.1943153
-0.33494198 0.14767992 0.06374195 0.074130245 -0.1760412 0.024832334 -0.0093845725 0.21843454
0.048619352 0.24380769 -0.008494324 -0.14911546 0.10510038 -0.34964624 -0.18473583 0.10362857
0.2532323 0.057939988 0.045621246 -0.16308823 0.15075615 -0.0977871 0.17617646 -0.09606026
-0.070371434 0.04248668 -0.20759028 -0.046876997 0.30468452 -0.07585793 -0.27115172 0.016159832
00000000: 42eb a23d 8c0d 003d 7775 30be a394 a23d
00000010: 7e39 59be d4b5 8dbc 0a68 113c 6ad4 553e
00000020: 7511 e13d e1ce cbbc e3dc a23d e2d3 313d
00000030: b9ac d3be 5e0b 9fbe 0171 95bf 5ace 353d
00000040: 50dd 1abd 81f8 4f3e 8400 9cbd bf16 33bd
00000050: 7743 3cbd 7ea3 493d f4e7 ae3c 491f da3e
00000060: 9c98 29be ca3d ad3c c845 2a3e 0f38 ec3b
00000070: a118 45be 551e 083e bf80 ffbd 39ee fa3d
00000080: 3451 91bc c1bb 103c a3a9 d9bd 5c1b 31be
00000090: 839a 6bbd 0423 cc3e 8ee0 f1be d482 d13c
000000a0: 43a6 bfbe 246b c7bf 1472 a5bd 9e8c f2bd
000000b0: 1cf5 cdbd 72c3 c53d 0def 343d 69cb 25bc
000000c0: afba d23c 12a9 693d ab4d b93d faca f93d
000000d0: 156b c93d 37ab 313d a1c8 e2bb 3276 373d
000000e0: 26f3 ccbd 5146 5cbe ef9b 9cbd 4f3e 23bc
000000f0: bf7d 933d 7f08 f13d 8246 02be f05d dc3d
00000100: dc68 1a3e 3bf5 56bc 884c 693e c531 093e
00000110: c74c 9f3d a7d8 853d 827c 28be fa38 73be
00000120: 25b6 833c 04ef c93b 64e5 b33c 7840 4a3d
00000130: e429 5c3e 91e0 d8bd 04e0 71be 6364 25bf
00000140: 5d67 133d 2125 7b3e 517c 2f3e 22fb a3be
00000150: e269 a73d 70cf 3fbb c5d2 c1bc dfde 52be
00000160: 3d97 103e b0ff 91be c40c 693d 4ea9 1a3e
00000170: 2e5c 403e dbcf da3d d646 b6be 7ee7 c6bd
00000180: 6303 333e b696 f53d ab44 20be 532c 1bbf
00000190: 934f 033e 28e5 923e b171 a33d 77b2 85be
000001a0: a4b1 a4be c025 203e 63d6 1bbe 393f 2abe
000001b0: 1969 d0bc 97fa 4fbb b86f 13bc 9f97 0e3c
000001c0: a69e d7bd 84af 853e d765 0d3e a029 2bbf
000001d0: 096e 73bd 76dc 43be 16e7 6d3e 204a 1cbe
000001e0: 6a02 a8be 217a d1bc a68b afbd a92c 393e
000001f0: b8c9 b1be 04eb 71be 241e 903d 2605 4c3d
00000200: 2836 1cbe be71 77be e250 f9bd 85e5 f53c
00000210: 4c2d 33be 3f5c 0f3c 6d7e 3d3e b523 ccbe
00000220: 9d02 acbe bea8 07bc cd39 753e babe d03d
00000230: 4574 133e 5a63 983d ac52 cc3e e019 8dbd
00000240: 5371 d2be 5846 0fbe 83eb e83d c823 a4bd
00000250: 6af9 dfba 7271 79bd fc3a 02be c5bb 9dbd
00000260: 9ddf 1fbd 08be c63e 148c 69be 5392 3dbf
00000270: 8912 9cbe 5082 c8bf ca55 e03c e809 92bc
00000280: 960a 643c 2f67 63bd a9aa 04bd d511 71bc
00000290: 17fb 873b eec1 973d 8c16 21bc 0286 633e
000002a0: 6882 19bc 24cc 9bbd 60a2 373e 00ba de3d
000002b0: 85b0 543e 2152 073e 24d4 bf3d 6e55 183e
000002c0: 5623 153d f552 3fbe acee 443e 5be5 cbbd
000002d0: 1fa0 a23d 6bd9 7cbc 21c4 343e ac2a d73c
000002e0: 22f1 cd3b d133 dc3c 86bc 16be a64a 043e
000002f0: 2b15 96bd c4d3 823c d8c8 d23d c423 c03e
00000300: b13d 32be 3f11 fdbd 52a8 7ebf f3fd 04be
00000310: 72be 79bd d270 2abb c1a3 a5bd 7e46 9d3d
00000320: a330 aa3d 527b 3cbd 94b2 2cbd 4686 1ebe
00000330: a6e1 11be 1c4c b7bd 1535 403d bb96 773e
00000340: 2529 da3d 659c 0a3d 6c12 46be a096 f53d
00000350: 5503 e93d f67d e53d 7af1 0abe 42e4 d03d
00000360: 7d4d 89be 5108 49be c5e9 113e 2015 34bf
00000370: 16f5 1bbe bc3b 463d 9b07 31be 97fa 463e
00000380: 847d abbe 6839 173e 248b 823d 99d1 973d
00000390: 2544 34be 2e6d cb3c c0c1 19bc 4ead 5f3e
000003a0: 1625 473d b9a8 793e c72b 0bbc b9b1 18be
000003b0: de3e d73d d504 b3be 642b 3dbe 373b d43d
000003c0: aaa7 813e 7b52 6d3d 58dd 3a3d 9a00 27be
000003d0: d25f 1a3e 9a44 c8bd 9a67 343e 3ebb c4bd
000003e0: e61e 90bd 8306 2e3d 8c92 54be 1802 40bd
000003f0: 9cff 9b3e 675b 9bbd 66d4 8abe a061 843c

fc1.bias f4 [256]
0.08793762 0.10807159 -0.0034516624 0.0039662668 0.15879366 0.0429535 -0.14737085 -0.19624388
-0.21554536 -0.13449252 0.04645314 0.15102446 -0.057650816 -0.13920651 -0.14396869 0.002424112
0.0066308375 -0.025637224 -0.09864821 -0.26173723 -0.13918106 0.041977994 0.07454335 -0.071690075
-0.07852272 0.083233565 0.0947107 0.20238969 0.03458479 0.19131932 0.19611974 -0.025873357
-0.13168013 0.059767477 -0.082927 0.13377233 0.0070281513 0.03768823 -0.0873145 0.044590663
-0.027926115 -0.057085823 0.13286711 0.084468246 -0.07403352 -0.05995096 -0.22243354 -0.15464339
0.033958603 -0.046551537 -0.051021352 0.08008834 -0.039886545 -0.022677207 0.015843116 0.0049139713
0.026969338 0.0299791 0.123736836 0.09903805 0.2786612 0.06408586 0.06505447 -0.0471784
0.018524898 -0.12138262 -0.19404957 -0.17948627 -0.17103697 -0.1265861 -0.17019853 0.0840449
-0.20227756 0.06711321 0.021048805 -0.118256494 0.124879524 -0.028940126 -0.12636247 0.078086965
-0.12978986 0.05944726 0.005411386 -0.008249151 0.087031215 -0.11086869 -0.02919111 0.12687053
0.05603918 -0.013833487 0.18552773 -0.084302515 -0.12561989 0.15366994 -0.06258619 0.04115282
-0.011915327 -0.24348083 -0.014023599 0.07750333 -0.07397929 -0.22144051 -0.18726523 0.025720133
-0.112173945 -0.21134341 0.068740256 -0.13858205 -0.14734532 0.056465007 0.091928974 0.0011429128
0.11064071 0.009216505 0.11705292 -0.091619715 -0.22319813 0.0019698539 -0.0699711 0.02496226
-0.03626924 -0.031175531 -0.08575749 -0.092989884 -0.16528904 -0.118847996 -0.009190904 0.12002691
0.1645728 -0.023815101 -0.052006222 0.040223192 -0.008583964 -0.037365366 -0.0005247988 -0.20161572
-0.12872963 -0.22477783 0.007854977 -0.19429004 -0.0707135 0.040547766 0.06293617 -0.080837205
-0.03979522 -0.04481021 -0.1822212 0.118189536 -0.17886144 0.08474708 0.0061019333 -0.15241948
-0.20432083 -0.19453892 -0.03507184 0.0257629 0.00081874436 -0.10806993 0.034460824 0.05097412
0.03630896 0.08812126 0.07740978 -0.07853409 -0.056719713 -0.15666702 -0.09675241 -0.2540656
-0.054813664 -0.13480876 0.10241118 -0.1286357 0.043127917 0.14262345 0.0065962756 -0.01074603
0.14965516 -0.22502749 0.10195 -0.14464812 0.13861427 -0.102004446 -0.05556502 -0.07258048
-0.11714061 -0.009423882 0.12612289 0.0054514725 0.09271101 0.10850963 -0.16525917 0.09102392
0.022110056 0.019247776 -0.021707578 -0.08213426 0.06287822 -0.10022963 -0.18228759 -0.077327676
0.04395442 -0.060965605 -0.07236633 0.022420317 -0.026359722 -0.14332756 0.10872196 0.12852727
0.07444263 -0.003918674 -0.20670387 -0.20728773 -0.044451144 -0.106093064 0.033945035 -0.09576487
-0.13868505 0.005746036 0.041198824 -0.06852209 -0.08660301 -0.19983746 -0.03698906 0.028325984
-0.23236851 -0.013024345 -0.031066926 -0.0046819085 0.1476393 -0.18034616 0.007076586 0.040713385
0.057155125 -0.047290213 0.07841658 -0.1871982 -0.111795515 -0.028252378 0.011431276 -0.2044103
0.03287528 0.14323124 -0.11110416 0.053572446 -0.14645058 -0.022328801 -0.059554655 0.16914818
0.15194154 0.014361127 0.011975586 -0.24843298 -0.06637243 0.21959391 -0.090247415 -0.057699833
00000000: a418 b43d a354 dd3d 4935 62bb 75f7 813b
00000010: ce9a 223e 02f0 2f3d 62e8 16be 28f4 48be
00000020: ecb7 5cbe 68b8 09be a645 3e3d 28a6 1a3e
00000030: 4323 6cbd 278c 0ebe 876c 13be dadd 1e3b
00000040: 7f47 d93b 2805 d2bc 1308 cabd 6c02 86be
00000050: 7b85 0ebe 1ef1 2b3d 2faa 983d 3fd2 92bd
00000060: 85d0 a0bd 5c76 aa3d aff7 c13d 3e3f 4f3e
00000070: c8a8 0d3d 36e9 433e 9dd3 483e 5df4 d3bc
00000080: 28d7 06be bece 743d a2d5 a9bd 9dfb 083e
00000090: 684c e63b f95e 1a3d f2d1 b2bd b3a4 363d
000000a0: 4fc5 e4bc d3d2 69bd 510e 083e b0fd ac3d
000000b0: e39e 97bd 238f 75bd 9ec5 63be d65a 1ebe
000000c0: 2d18 0b3d d3ac 3ebd c4fb 50bd 5b05 a43d
000000d0: 1360 23bd 8dc5 b9bc 6cc9 813c 6105 a13b
000000e0: cdee dc3c bb96 f53c bd69 fd3d 76d4 ca3d
000000f0: aeac 8e3e 733f 833d 473b 853d 233e 41bd
00000100: 87c1 973c 7397 f8bd eeb4 46be 40cb 37be
00000110: 5124 2fbe c99f 01be 8648 2ebe bc1f ac3d
00000120: d921 4fbe a772 893d 8b6e ac3c 7630 f2bd
00000130: d6c0 ff3d d813 edbc 2a65 01be 0fec 9f3d
00000140: a2e7 04be f87e 733d ff51 b13b 7227 07bc
00000150: 6c3d b23d 200f e3bd 3222 efbc 59ea 013e
00000160: 5789 653d daa5 62bc fbfa 3d3e cca6 acbd
00000170: 80a2 00be a75b 1d3e 302d 80bd dc8f 283d
00000180: 8138 43bc 0a53 79be 3dc3 65bc 11ba 9e3d
00000190: 7482 97bd 4dc1 62be 75c2 3fbe 07b3 d23c
000001a0: 74bb e5bd 686a 58be b1c7 8c3d 74e8 0dbe
000001b0: b1e1 16be da47 673d 4245 bc3d cacd 953a
000001c0: 9997 e23d d300 173c 71b9 ef3d 1ea3 bbbd
000001d0: 0d8e 64be aa18 013b 024d 8fbd a77d cc3c
000001e0: 0e8f 14bd d463 ffbc 9fa1 afbd 7b71 bebd
000001f0: 8841 29be 9466 f3bd 7295 16bc abd0 f53d
00000200: c685 283e e317 c3bc 7a04 55bd 13c1 243d
00000210: c1a3 0cbc 6d0c 19bd a792 09ba 5a74 4ebe
00000220: b3d1 03be 292c 66be 29b2 003c f8f3 46be
00000230: 3dd2 90bd 6a15 263d aee4 803d fa8d a5bd
00000240: 5000 23bd e98a 37bd 3298 3abe 5b0d f23d
00000250: 7427 37be e18f ad3d baf2 c73b da13 1cbe
00000260: 7b39 51be 3635 47be 7da7 0fbd b80c d33c
00000270: 01a1 563a c453 ddbd cb26 0d3d 3dca 503d
00000280: b4b8 143d eb78 b43d 0589 9e3d 7bd6 a0bd
00000290: ee52 68bd 526d 20be 2126 c6bd e314 82be
000002a0: 4b84 60bd 4f0b 0abe f4bc d13d 14b9 03be
000002b0: e6a6 303d e20b 123e 9225 d83b 1e10 30bc
000002c0: 343f 193e 9b6d 66be 29cb d03d a31e 14be
000002d0: e6f0 0d3e b5e7 d0bd 2598 63bd 13a5 94bd
000002e0: 6be7 efbd a066 1abc 5c26 013e 44a2 b23b
000002f0: 45df bd3d 4c3a de3d b339 29be c06a ba3d
00000300: 2620 b53c 83ad 9d3c 17d4 b1bc 0236 a8bd
00000310: 4cc6 803d 3145 cdbd 99a9 3abe f95d 9ebd
00000320: 8d09 343d 12b7 79bd cc34 94bd d0aa b73c
00000330: 58f0 d7bc 76c4 12be 9ea9 de3d a79c 033e
00000340: 6175 983d 3868 80bb 2eaa 53be 3c43 54be
00000350: 6712 36bd 5247 d9bd f309 0b3d 5f20 c4bd
00000360: 7403 0ebe 3e49 bc3b 19c0 283d 4f55 8cbd
00000370: eb5c b1bd 31a2 4cbe d781 17bd e50b e83c
00000380: 03f2 6dbe 1064 55bc 1180 febc b26a 99bb
00000390: c22e 173e aaac 38be b5e2 e73b 14c3 263d
000003a0: 7e1b 6a3d 62b3 41bd df98 a03d e3b0 3fbe
000003b0: 0cf5 e4bd 8871 e7bc 3f4a 3b3c ef50 51be
000003c0: 3ba8 063d 36ab 123e 948a e3bd c86e 5b3d
000003d0: 24f7 15be e4ea b6bc 95ef 73bd 2e35 2d3e
000003e0: 9096 1b3e ef4a 6b3c 4035 443c 3765 7ebe
000003f0: 45ee 87bd 3add 603e a3d3 b8bd a956 6cbd

fc2.weight f4 [256, 256]
0.21188116 -0.22871651 -0.1872658 -0.012767476 -0.08276253 -0.087332375 -0.02758237 0.15523955
-0.23564531 -0.07939152 0.18953492 -0.21301524 0.001961834 -0.075703606 -0.24884413 -0.27667803
-0.15755016 -0.020313825 -0.05571938 0.08656021 0.06039523 0.14955051 0.040663272 -0.14207025
-0.08449232 0.077407554 -0.24804313 -0.14863634 -0.048011634 0.08263488 -0.19420841 -0.058711898
-0.012496386 -0.10030306 0.087348595 0.12004843 -0.03443804 -0.10586047 -0.41046804 -0.032161355
0.036418535 -0.30868414 -0.055163722 -0.006229004 -0.0026318377 -0.1037072 -0.13457443 -0.0047381776
0.0004131566 -0.019782513 -0.3226577 -0.29256335 0.08256601 -0.17597172 -0.2163239 0.028540784
-0.15102401 -0.0873181 0.03627419 0.18996763 -0.09031586 0.046401832 0.03528064 -0.17014372
-0.15424453 0.11238288 0.14664279 -0.3466152 -0.3824918 -0.08155962 -0.04786068 -0.21331683
0.10123245 -0.012041088 -0.104402 0.052967258 -0.04961159 -0.055885985 0.045708686 0.04132254
0.11213544 -0.05059004 -0.14314152 -0.18010157 -0.06950934 0.048057556 0.12105122 0.109313294
-0.13351154 -0.32880172 0.075524785 0.16562037 -0.42506385 -0.15206929 0.08541896 0.129287
-0.17791274 -0.123018555 0.13315068 -0.08858262 -0.09674807 -0.2581029 -0.2158224 -0.12928091
0.08727334 -0.07268956 -0.37371373 -0.17100158 -0.2986148 0.00040985664 -0.058494665 -0.27370182
0.08047256 0.068787046 -0.43465748 -0.09110381 0.08432445 0.04161732 -0.023432022 -0.099328846
-0.065065555 -0.029002393 -0.076479994 -0.009880919 -0.059623398 0.023597835 0.07638206 -0.024351345
-0.15286511 0.15111189 0.13186239 0.14200655 0.011983288 -0.115210675 0.02544495 -0.12207602
0.041084386 0.034647096 0.22523442 0.047927707 -0.17045373 -0.20205157 0.030570058 -0.23887844
-0.21974148 -0.10339123 -0.110405006 0.01757392 -0.03934311 -0.016960638 -0.11132369 -0.0999394
-0.12052354 -0.10445072 -0.2372377 -0.055904765 -0.39503014 -0.12028672 0.010657141 0.14470187
-0.2757116 -0.0349175 0.0030107973 -0.10209176 0.062023684 -0.02858067 0.112492174 -0.22334895
0.024346938 -0.067884155 0.065509215 0.13731286 0.0782975 0.110730864 -0.44641578 -0.18247057
-0.07831825 0.053348895 -0.20370048 -0.018453311 0.025335502 -0.05911428 -0.0131020425 -0.08211027
-0.038570914 -0.12532026 0.1000619 0.066699505 -0.13739358 -0.11884718 -0.012082662 0.08722539
-0.25866145 0.24176489 0.18554005 0.12986182 -0.038752615 0.031854775 0.093300276 0.17103167
0.050034374 -0.046525944 0.11873723 0.049795628 -0.14504966 -0.14443262 -0.059569128 0.095884785
0.15838073 0.04014084 0.08881442 -0.039056093 0.14521636 -0.044164333 0.03692522 -0.28327537
-0.14635886 0.20351091 -0.051488057 -0.47124597 0.091344096 -0.042187355 0.19990484 -0.19688554
-0.15164767 0.09066214 -0.08382386 -0.08438954 0.025733301 -0.17317556 -0.22078013 -0.034761317
-0.008069142 -0.3992038 -0.1414375 -0.023645762 -0.04635057 0.18047762 -0.20957732 -0.2974067
-0.006962285 0.17960434 -0.009884272 -0.13985975 -0.007510271 -0.15858576 0.09314677 -0.051745366
-0.062840834 -0.1003932 0.13734272 0.05658664 -0.17124861 0.11322465 0.07495391 0.0044166194
00000000: 60f7 583e a934 6abe 9bc2 3fbe ad2e 51bc
00000010: 677f a9bd 51db b2bd 6cf4 e1bc 1ef7 1e3e
00000020: 014d 71be 0598 a2bd 7115 423e ab20 5abe
00000030: 1d92 003b 7e0a 9bbd ffd0 7ebe bea8 8dbe
00000040: d454 21be 2e69 a6bc 013a 64bd 7b46 b13d
00000050: fd60 773d c523 193e 888e 263d dd7a 11be
00000060: 4f0a adbd da87 9e3d 05ff 7dbe 2034 18be
00000070: d9a7 44bd 7a3c a93d 92de 46be e37b 70bd
00000080: a4bd 4cbc b16b cdbd d2e3 b23d f4db f53d
00000090: e70e 0dbd 60cd d8bd de28 d2be a0bb 03bd
000000a0: 9a2b 153d d90b 9ebe 5bf3 61bd ac1c ccbb
000000b0: e97a 2cbb 7164 d4bd e1cd 09be b742 9bbb
000000c0: f19c d839 f00e a2bc 6433 a5be ddca 95be
000000d0: 5e18 a93d ee31 34be 0384 5dbe 5dce e93c
000000e0: 0aa6 1abe d5d3 b2bd 3f94 143d e086 423e
000000f0: 86f7 b8bd d90f 3e3d 6f82 103d 283a 2ebe
00000100: 47f2 1dbe ff28 e63d 8729 163e 8c77 b1be
00000110: f7d5 c3be bb08 a7bd 8f09 44bd ba6f 5abe
00000120: f552 cf3d fc47 45bc b7d0 d5bd 32f4 583d
00000130: 8635 4bbd b4e8 64bd 0839 3b3d d341 293d
00000140: 44a7 e53d 8037 4fbd b193 12be 8c6c 38be
00000150: ea5a 8ebd 00d8 443d b4e9 f73d a6df df3d
00000160: 40b7 08be b358 a8be bdac 9a3d 6398 293e
00000170: f8a1 d9be 0db8 1bbe 23f0 ae3d d063 043e
00000180: c22e 36be 27f1 fbbd a758 083e ce6a b5bd
00000190: da23 c6bd 1026 84be 8c00 5dbe 3762 04be
000001a0: 5dbc b23d 44de 94bd 6857 bfbe 0a1b 2fbe
000001b0: 0ae4 98be 07e2 d639 1a98 6fbd a522 8cbe
000001c0: ccce a43d 39e0 8c3d 6d8b debe a294 babd
000001d0: 4cb2 ac3d ec76 2a3d 83f4 bfbc ec6c cbbd
000001e0: 1741 85bd 6d96 edbc 8ba1 9cbd 94e3 21bc
000001f0: aa37 74bd 3f50 c13c 336e 9c3d 797c c7bc
00000200: ac88 1cbe 13bd 1a3e ef06 073e 2a6a 113e
00000210: 8e55 443c 93f3 ebbd ee71 d03c fe02 fabd
00000220: 1a48 283d 1dea 0d3d daa3 663e d84f 443d
00000230: 6c8b 2ebe 9be6 4ebe 0f6e fa3c 8d9c 74be
00000240: e903 61be c8be d3bd 051c e2bd 2ef7 8f3c
00000250: 3e26 21bd 09f1 8abc adfd e3bd 07ad ccbd
00000260: 0cd5 f6bd 42ea d5bd 71ee 72be 65fc 64bd
00000270: 6441 cabe e258 f6bd 4a9b 2e3c ba2c 143e
00000280: 122a 8dbe a705 0fbd cc50 453b 7c15 d1bd
00000290: 8c0c 7e3d 0222 eabc 4c62 e63d 96b5 64be
000002a0: 3b73 c73c d906 8bbd b229 863d be9b 0c3e
000002b0: 715a a03d ddc6 e23d 9c90 e4be 91d9 3abe
000002c0: 5265 a0bd 5f84 5a3d dc96 50be 662b 97bc
000002d0: 668c cf3c d121 72bd f3a9 56bc 6e29 a8bd
000002e0: 89fc 1dbd f453 00be 41ed cc3d c099 883d
000002f0: e7b0 0cbe 2666 f3bd 5cf6 45bc 3aa3 b23d
00000300: 466f 84be 3791 773e 36fe 3d3e 7ffa 043e
00000310: 10bb 1ebd 277a 023d 3714 bf3d ed22 2f3e
00000320: d8f0 4c3d fd91 3ebd 812c f33d 80f6 4b3d
00000330: e687 14be 25e6 13be c2fe 73bd 3e5f c43d
00000340: 8f2e 223e b96a 243d 56e4 b53d 48f9 1fbd
00000350: 99b3 143e a9e5 34bd e63e 173d 7809 91be
00000360: 19df 15be 2a65 503e 24e5 52bd 2747 f1be
00000370: 9d12 bb3d a6cc 2cbd dbb3 4c3e 5d9c 49be
00000380: 8749 1bbe 12ad b93d d8ab abbd 6cd4 acbd
00000390: a5ce d23c ef54 31be 3014 62be e261 0ebd
000003a0: 6f34 04bc 7164 ccbe fed4 10be c2b4 c1bc
000003b0: 18da 3dbd 20cf 383e 709b 56be b145 98be
000003c0: e123 e4bb 33ea 373e a4f1 21bc 6537 0fbe
000003d0: b818 f6bb 4e64 22be bcc3 be3d f3f2 53bd
000003e0: b2b2 80bd f39a cdbd 92a3 0c3e 65c7 673d
000003f0: cc5b 2fbe 53e2 e73d 7081 993d 4ab9 903b

fc2.bias f4 [256]
-0.05667838 -0.010351778 -0.041379526 0.29999813 -0.0124419285 0.5107154 -0.09093063 -0.03203316
0.0024646076 -0.08872795 -0.011819577 -0.16240638 0.13838674 -0.079977304 0.019646369 0.031080512
0.07900765 0.002175279 -0.011810125 -0.13399504 0.019571308 0.0028036567 0.3789389 0.044680405
-0.09176945 0.007896536 0.0339885 0.040095754 -0.11825441 -0.018481404 -0.011188141 0.022706753
-0.05506452 -0.05475485 0.015097579 -0.0031783287 -0.072638884 0.19290212 0.03227442 -0.03762735
-0.0002516022 -0.10807747 -0.03634482 0.2588349 -0.010224633 -0.013140458 -0.057059485 -0.03917004
-0.0035102093 0.037772365 -0.022965318 -0.072460204 -0.053635575 -0.0053529986 0.04767955 -0.01673407
-0.085571 -0.017621106 0.023126379 0.13121267 0.15085994 -0.1524893 0.02740785 0.03971828
-0.022439212 0.4807531 -0.041060437 -0.012420632 -0.010321612 0.02307346 -0.012370728 -0.0022351549
-0.19020906 -0.057927772 0.035836607 -0.034511022 -0.08791386 -0.08395508 -0.029765107 -0.10591798
0.033379443 0.22827065 0.17405187 0.0078089777 -0.0962119 -0.0027441499 0.06242568 0.017916923
0.006807707 0.5641045 0.112416185 -0.030085161 -0.036105406 -0.06422686 0.021395385 -0.06403104
-0.011671593 0.00787326 -0.024810078 -0.031573698 -0.16112915 0.015668247 0.014271483 -0.08624646
-0.031132348 0.19412735 -0.08621731 -0.102031276 -0.025877962 0.03525297 0.2976474 0.101099275
-0.10409295 0.033476442 0.049807604 -0.1733865 -0.17779763 -0.09508207 0.09786394 0.29425928
0.05279612 -0.028588442 0.0029238628 -0.04999185 -0.06343563 -0.062437072 -0.093691796 0.018187158
0.017509405 0.19929945 -0.09956908 0.03121867 -0.14521214 0.05776995 -0.09779633 -0.031256393
0.0775892 -0.023427805 -0.029633047 -0.085979424 -0.0053545716 -0.0043504643 -0.012645164 -0.038428653
0.026434073 -0.055090588 -0.055842094 -0.026549466 -0.071021676 0.008284826 -0.08404249 -0.029152187
-0.09266668 0.016288096 -0.07153098 0.029555403 0.0090969745 -0.15162183 -0.03293492 -0.05089341
0.30858406 -0.032201678 -0.09652089 -0.044089872 -0.107638754 0.026564829 -0.038454235 -0.1743796
-0.071278125 0.2587326 0.014319406 0.0048826723 0.025318412 -0.087782584 -0.07818258 -0.16419014
-0.07548761 -0.02852347 -0.008867812 -0.13497078 0.0743259 0.027570438 0.17326151 -0.078389116
-0.036027096 -0.09079145 -0.04202981 0.033816103 0.042393103 -0.09534054 0.012964338 -0.08531784
-0.046786122 -0.012318915 0.028256226 0.16110227 -0.04979595 -0.057191435 -0.028066885 0.024775324
0.04237773 -0.18523239 -0.04154671 -0.08946236 -0.090143904 -0.08213141 0.013000096 -0.00616504
0.02917559 0.043796487 -0.048787188 0.019267661 0.013356106 0.00927592 -0.042796984 -0.010017552
-0.054337364 0.020808555 0.119595475 0.0336538 -0.032355495 -0.0060166377 0.04465654 0.07996389
0.03412304 0.0015392818 -0.094304234 -0.06300878 -0.09131148 0.012105994 0.17266247 0.040141214
0.042640783 -0.009946209 -0.07692113 -0.132782 -0.045127887 0.003596126 0.353469 0.02963596
-0.009786232 0.078670956 -0.065350555 -0.03133393 0.07448889 0.06397499 0.014617817 -0.075284705
-0.043029733 0.06615334 0.041132566 0.51128113 -0.106672354 -0.08535168 0.017499356 0.0129327485
00000000: 9727 68bd 819a 29bc 947d 29bd 5b99 993e
00000010: 3bd9 4bbc 3fbe 023f d739 babd 3435 03bd
00000020: 4185 213b 00b7 b5bd e6a6 41bc dc4d 26be
00000030: 41b5 0d3e 24cb a3bd 6cf1 a03c 8f9c fe3c
00000040: c3ce a13d 208f 0e3b 417f 41bc ff35 09be
00000050: 0254 a03c 8ebd 373b 4804 c23e cd02 373d
00000060: 9ff1 bbbd 7960 013c 8637 0b3d 723b 243d
00000070: 5e2f f2bd 5066 97bc 774e 37bc 8303 ba3c
00000080: 568b 61bd 9f46 60bd d65b 773c 824b 50bb
00000090: b2c3 94bd 2288 453e 2f32 043d 231f 1abd
000000a0: 7ae9 83b9 b857 ddbd 4ede 14bd 0286 843e
000000b0: 3885 27bc 134b 57bc 35b7 69bd c470 20bd
000000c0: 8a0b 66bb 32b7 1a3d c321 bcbc 0466 94bd
000000d0: fab0 5bbd 3568 afbb a24b 433d e315 89bc
000000e0: d93f afbd 235a 90bc 8873 bd3c 9d5c 063e
000000f0: 077b 1a3e 2826 1cbe 6d86 e03c a3af 223d
00000100: 70d2 b7bc 4525 f63e fd2e 28bd e87f 4bbc
00000110: fa1b 29bc 8e04 bd3c 98ae 4abc ad7b 12bb
00000120: 2ac6 42be ac45 6dbd 68c9 123d 6e5b 0dbd
00000130: 2f0c b4bd a4f0 abbd f4d5 f3bc 87eb d8bd
00000140: e2b8 083d c8bf 693e a73a 323e 74e2 ff3b
00000150: bf0a c5bd 32d7 33bb 12b2 7f3d 83c6 923c
00000160: 2f13 df3b 2769 103f 753a e63d 2875 f6bc
00000170: 43e3 13bd 5f89 83bd 6045 af3c b522 83bd
00000180: 363a 3fbc d9fe 003c 813e cbbc 6c53 01bd
00000190: 0aff 24be b25a 803c f0d2 693c fca1 b0bd
000001a0: 4409 ffbc 52c9 463e b392 b0bd c6f5 d0bd
000001b0: 05fe d3bc 6b65 103d 3d65 983e 230d cf3d
000001c0: af2e d5bd 981e 093d 0f03 4c3d 3b8c 31be
000001d0: 9510 36be 63ba c2bd e46c c83d 27a9 963e
000001e0: bf40 583d 4f32 eabc 479e 3f3b 41c4 4cbd
000001f0: 8aea 81bd 04be 7fbd 7ce1 bfbd 3cfd 943c
00000200: e26f 8f3c 2815 4c3e e0ea cbbd 4cbe ff3c
00000210: 7eb2 14be 2fa0 6c3d 7149 c8bd b406 00bd
00000220: 16e7 9e3d abeb bfbc 01c1 f2bc fb15 b0bd
00000230: 6775 afbb 578e 8ebb a92d 4fbc 5d67 1dbd
00000240: 458c d83c aba6 61bd aeba 64bd 447e d9bc
00000250: d073 91bd 14bd 073c 781e acbd 91d0 eebc
00000260: 07c8 bdbd 9d6e 853c d67e 92bd 2c1e f23c
00000270: 7a0b 153c c142 1bbe c4e6 06bd 9c75 50bd
00000280: bbfe 9d3e e8e5 03bd bfac c5bd 9597 34bd
00000290: b571 dcbd 7c9e d93c 3082 1dbd 9190 32be
000002a0: 44fa 91bd 9978 843e f19b 6a3c d3fe 9f3b
000002b0: 8f68 cf3c 5bc7 b3bd 301e a0bd 7621 28be
000002c0: 4099 9abd 0daa e9bc 4d4a 11bc c835 0abe
000002d0: 2d38 983d 66db e13c 776b 313e 798a a0bd
000002e0: 2691 13bd def0 b9bd 7327 2cbd c182 0a3d
000002f0: 64a4 2d3d e741 c3bd 6068 543c 1fbb aebd
00000300: cea2 3fbd 46d5 49bc 9a79 e73c fef7 243e
00000310: d7f6 4bbd 9141 6abd 86ec e5bc 9ff5 ca3c
00000320: 4594 2d3d 8fad 3dbe e22c 2abd 0b38 b7bd
00000330: 5e9d b8bd 8334 a8bd 5bfe 543c 1b04 cabb
00000340: a601 ef3c f263 333d 13d5 47bd 37d7 9d3c
00000350: 92d3 5a3c 07fa 173c e44b 2fbd a920 24bc
00000360: db90 5ebd b476 aa3c 79ee f43d 91d8 093d
00000370: 3287 04bd 3727 c5bb c7e9 363d 1cc4 a33d
00000380: 9ac4 0b3d bac1 c93a 9422 c1bd bf0a 81bd
00000390: 8301 bbbd 3858 463c 6ece 303e 1d6b 243d
000003a0: 1aa8 2e3d 6df5 22bc d388 9dbd 01f8 07be
000003b0: 05d8 38bd fcac 6b3b e4f9 b43e 1dc7 f23c
000003c0: 6f56 20bc 3d1e a13d 83d6 85bd 0258 00bd
000003d0: a28d 983d 5205 833d 917f 6f3c de2e 9abd
000003e0: f23f 30bd 677b 873d 9f7a 283d 52e3 023f
000003f0: 0977 dabd ddcc aebd cf5a 8f3c e1e3 533c

fc3.weight f4 [4, 256]
-0.15693703 -0.17600365 0.15307803 0.061914947 -0.0509309 0.14877214 0.08026078 0.15321203
0.08724866 -0.043353196 -0.039673027 -0.16809139 0.06437834 0.10171006 -0.08215882 0.06848662
0.11428984 0.10403685 -0.07805592 -0.13131028 0.088897616 0.09370272 0.05780344 0.15063998
-0.013522933 0.089167066 -0.4411117 -0.33343035 0.30766812 0.06249622 -0.19644049 0.113276854
-0.3495472 -0.33234933 -0.06196681 0.13609567 0.017098142 0.15410994 0.1995816 -0.024633452
0.0348067 -0.12521829 0.03556696 0.08699739 -0.5268465 -0.17793949 0.19401082 -0.023891456
0.09652347 -0.030517308 0.031167464 -0.02437483 -0.073142834 0.056688275 -0.06753145 0.04473069
0.16429326 0.3112866 -0.10582802 0.039665554 0.1067867 -0.03318353 0.06824685 -0.0011804675
-0.01251529 0.09157181 -0.027096706 0.3474254 -0.22818775 0.108211845 0.0018211108 -0.047586374
-0.20700109 0.01973427 0.34090167 0.0023457634 -0.073383324 -0.11958463 0.0937505 0.31169206
0.015038415 0.06700137 0.18538053 -0.15153286 0.09230472 -0.0027242294 0.16098191 0.13719194
0.1030906 0.09975421 0.08358043 -0.35078076 0.12271754 -0.041682635 -0.03706512 -0.16236688
0.028780907 0.12821579 -0.008660719 0.014449566 -0.114318885 -0.019296918 0.052000996 0.014265734
-0.10685349 0.04475302 -0.30104983 -0.054859944 0.18171786 -0.015736375 0.044508316 0.04137159
0.04869382 0.01918294 -0.019064564 -0.114515334 -0.13452624 0.043013677 0.0024922378 0.07388305
-0.2558069 0.0073340423 0.017980216 0.04654702 -0.005490392 0.04271015 -0.10659053 0.18346742
-0.005396226 0.10963966 -0.04585819 0.13314156 -0.06530438 0.14304852 0.030955179 0.05905745
0.09691679 -0.17985782 0.06509326 0.059770033 0.11585189 -0.35637102 -0.020275814 -0.23355927
-0.109020166 0.06318352 -0.050596043 0.12878652 0.32686782 -0.06540052 -0.13752924 0.017690554
-0.010099192 0.0446931 0.029089779 0.16392979 0.12853256 -0.05591614 0.30657646 -0.10781904
0.009171413 0.058913533 0.053237427 0.31832173 -0.31994134 0.46819347 0.039364234 -0.009014994
0.10590078 0.06885368 0.027871905 -0.042781454 0.14423043 -0.0025740894 0.15407902 -0.15861711
-0.11430915 0.15132314 0.04706258 -0.20418602 0.08793982 0.16079563 0.17826983 -0.17963557
0.16965379 0.0005748038 -0.03618023 0.07267844 0.21888712 -0.29769263 0.13639656 -0.30542263
-0.19932374 0.059032634 0.038982198 0.11457935 -0.018135 0.035357215 0.19396888 -0.35210618
0.04277341 -0.0885986 -0.092215285 0.020393148 -0.4050876 -0.025672356 0.16552241 -0.031007163
-0.09763867 0.0031084141 -0.15868042 0.101387285 0.09247221 -0.21232332 0.10274517 0.07132209
-0.25627825 0.18670051 0.017823284 0.07028997 -0.14470798 0.16273029 0.09989446 0.03847492
-0.081973486 0.10858261 -0.05485857 0.05947508 -0.18677662 -0.18617906 0.033392623 0.06398947
0.08106313 0.10623096 0.04181039 -0.03566 0.093812995 0.01949901 0.06794569 0.09517677
0.08359415 0.06507691 0.009928091 0.038489997 0.07438698 0.17255154 -0.4529644 0.30904785
0.1030179 0.010498086 0.17252497 0.10437929 0.1615041 0.17000778 0.03728497 0.27370414
00000000: 1ab4 20be 4d3a 34be 7dc0 1c3e 879a 7d3d
00000010: eb9c 50bd b957 183e c45f a43d 9de3 1c3e
00000020: 6daf b23d 1f93 31bd 2f80 22bd 2620 2cbe
00000030: cbd8 833d 5d4d d03d e242 a8bd b742 8c3d
00000040: cb10 ea3d 4611 d53d c8db 9fbd 3476 06be
00000050: f40f b63d 36e7 bf3d 4dc3 6c3d 5e41 1a3e
00000060: 4b8f 5dbc 399d b63d 65d9 e1be 62b7 aabe
00000070: ad86 9d3e 09fc 7f3d b227 49be b2fd e73d
00000080: daf7 b2be b129 aabe e9d0 7dbd aa5c 0b3e
00000090: 6711 8c3c ffce 1d3e 1e5f 4c3e 18cc c9bc
000000a0: 7891 0e3d 3939 00be a9ae 113d b02b b23d
000000b0: 6adf 06bf c535 36be c6aa 463e 04b8 c3bc
000000c0: 19ae c53d 6fff f9bc e952 ff3c b9ad c7bc
000000d0: e9cb 95bd f731 683d ee4d 8abd 8737 373d
000000e0: 7e3c 283e f560 9f3e 5cbc d8bd 5978 223d
000000f0: fcb2 da3d 74eb 07bd 01c5 8b3d ebb9 9aba
00000100: ee0c 4dbc 008a bb3d e9f9 ddbc bee1 b13e
00000110: 0daa 69be 2c9e dd3d 57b2 ee3a eee9 42bd
00000120: 18f8 53be c4a9 a13c aa8a ae3e 61bb 193b
00000130: ff49 96bd c9e8 f4bd 4300 c03d 1a96 9f3e
00000140: af63 763c 0438 893d 65d4 3d3e 6e2b 1bbe
00000150: 420a bd3d fc88 32bb 71d8 243e 0b7c 0c3e
00000160: 2a21 d33d ef4b cc3d 372c ab3d 8999 b3be
00000170: 5553 fb3d 69bb 2abd 98d1 17bd 8143 26be
00000180: f0c5 eb3c 004b 033e b0e5 0dbc dfbd 6c3c
00000190: 0520 eabd 9214 9ebc fffe 543d d3ba 693c
000001a0: 01d6 dabd f14e 373d 3423 9abe d2b4 60bd
000001b0: 3f14 3a3e 92e9 80bc 5a4e 363d 4275 293d
000001c0: 2c73 473d 8a25 9d3c 4a2d 9cbc 0487 eabd
000001d0: 3fc1 09be 1c2f 303d d054 233b ff4f 973d
000001e0: 1ff9 82be 6852 f03b 3f4b 933c 17a8 3e3d
000001f0: bfe8 b3bb d7f0 2e3d 234c dabd e2de 3b3e
00000200: d3d2 b0bb c28a e03d ccd5 3bbd 4356 083e
00000210: 4ebe 85bd 507b 123e b795 fd3c 3ae6 713d
00000220: 4f7c c63d a62c 38be 9d4f 853d 6cd1 743d
00000230: c143 ed3d 4376 b6be 7719 a6bc 292a 6fbe
00000240: f745 dfbd 5d66 813d cc3d 4fbd 9de0 033e
00000250: 385b a73e b5f0 85bd 77d4 0cbe c8eb 903c
00000260: 1577 25bc 1d10 373d b04d ee3c 36dd 273e
00000270: 0a9e 033e 5308 65bd 97f7 9c3e 3bd0 dcbd
00000280: b243 163c 514f 713d 7d0f 5a3d 11fb a23e
00000290: 5acf a3be 0eb7 ef3e 643c 213d a0b3 13bc
000002a0: 82e2 d83d 2803 8d3d 9f53 e43c 9b3b 2fbd
000002b0: 24b1 133e 0eb2 28bb e4c6 1d3e 866c 22be
000002c0: ea1a eabd 74f4 1a3e b1c4 403d 2416 51be
000002d0: cb19 b43d 9ca7 243e 5e8c 363e 63f2 37be
000002e0: b9b9 2d3e 6eae 163a b931 14bd 6fd8 943d
000002f0: f223 603e 2b6b 98be 8aab 0b3e 5b60 9cbe
00000300: 861b 4cbe 34cc 713d ccab 1f3d 94a8 ea3d
00000310: da8f 94bc bad2 103d c79f 463e 4347 b4be
00000320: 2c33 2f3d 2f73 b5bd 5edb bcbd 880f a73c
00000330: a467 cfbe d54e d2bc b57e 293e bc02 febc
00000340: c8f6 c7bd 89b6 4b3b 1f7d 22be 23a4 cf3d
00000350: 1262 bd3d 496b 59be 0f6c d23d 5111 923d
00000360: e736 83be 6b2e 3f3e 2302 923c 30f4 8f3d
00000370: 542e 14be c5a2 263e 7795 cc3d e197 1d3d
00000380: b7e1 a7bd 8f60 de3d 61b3 60bd 249c 733d
00000390: 5f42 3fbe b9a5 3ebe b4c6 083d e90c 833d
000003a0: 6d04 a63d 9e8f d93d 5f41 2b3d 3810 12bd
000003b0: 0721 c03d 63bc 9f3c 1c27 8b3d 0aec c23d
000003c0: 6933 ab3d 0b47 853d 6fa9 223c b0a7 1d3d
000003d0: 3358 983d 5ab1 303e f3ea e7be 853b 9e3e
000003e0: 0cfb d23d 2a00 2c3c 63aa 303e cfc4 d53d
000003f0: 5561 253e 8516 2e3e 20b8 183d f322 8c3e

fc3.bias f4 [4]
0.36295292 0.2764028 0.33708888 0.34725288
00000000: f7d4 b93e ab84 8d3e ea96 ac3e 21cb b13e
