value-based method/DQN/checkpoint.pth (torch_old, 21039 bytes, 6 tensors)

fc1.weight f4 [64, 8]
000000 3f 37 24 bf 87 77 04 be 5f a1 fd be dc 55 06 3f
       -0.641468 -0.12936221 -0.4953718 0.5247476
000010 a0 1e 5d 3c f9 6b 4b 3e 60 1f 5c 3e 11 26 de 3e
       0.013496071 0.19865407 0.21496344 0.43388417
000020 37 3d 15 bf b9 ff 9d be 05 be bc be 0f 16 51 3e
       -0.5829653 -0.30859163 -0.36863723 0.20418571
000030 1a 8a ce be 6a 75 af bd 44 50 32 bd 56 b8 be 3e
       -0.40339738 -0.08567317 -0.04353358 0.37250012
000040 ea 79 00 be 8d d3 c8 bc a1 86 df 3c 8d 34 f1 3e
       -0.12546507 -0.024514938 0.027285876 0.47110406
000050 ca 74 41 be ff 13 48 3f be a1 72 3e b6 75 9e 3e
       -0.18892208 0.7815551 0.23694512 0.3094918
000060 b1 8b 53 3e c4 f9 7f be 29 67 74 3f 57 67 cc 3e
       0.20658757 -0.24997622 0.9546991 0.39922592
000070 ba 0c 99 bf be fe bb be 3c 80 05 3e 58 05 e1 3e
       -1.1957009 -0.3671779 0.13037199 0.4394939
000080 be c4 1b bd ce 96 45 bf 27 e1 ba be 0d bc 45 bf
       -0.038029425 -0.77183235 -0.36499903 -0.7724007
000090 d8 33 92 be 7e 2e b0 3e 72 bc b7 3e 60 6f 21 3e
       -0.2855518 0.3441047 0.3588596 0.15765142
0000a0 f7 76 73 be b3 25 68 bf 04 97 73 3e 95 2d 0c bf
       -0.2377585 -0.90682524 0.23788077 -0.5475705
0000b0 d5 88 2f bf e1 62 0b be 24 75 5e 3e 7f 9a cc 3e
       -0.68568164 -0.13611938 0.21724373 0.3996162
0000c0 55 1a 40 be 7c 39 a8 bd 70 9e 54 be e6 9f 5b be
       -0.18760045 -0.08214089 -0.20763564 -0.21447715
0000d0 6a ca f4 3e ce f1 f9 3e cd b8 cb 3e 8f 02 63 bf
       0.4781068 0.48817295 0.3978943 -0.8867578
0000e0 85 ab 14 3d e0 a1 a5 be 37 9e ea bd 12 5a 61 bf
       0.036296386 -0.32350063 -0.11455958 -0.8802806
0000f0 11 3a 07 3d ce 98 38 3e 6a 14 94 bb 6d 03 6f 3e
       0.03301436 0.1802704 -0.004519035 0.2334115
000100 b3 04 71 3e 38 74 d1 bc 3a 20 73 3d cd 3a 6d be
       0.23536949 -0.025568113 0.059356906 -0.23166962
000110 9f 1c af 3d b5 50 72 3f 7f 13 68 be df 87 95 bf
       0.08550381 0.946544 -0.22663687 -1.168209
000120 c6 9a 9f 3e ea 02 cf 3e 30 e8 0e 3f f3 e1 79 3f
       0.3117277 0.4043191 0.5582304 0.97610396
000130 5e 47 42 bf 59 e3 0c bf 85 ca 65 3d 9d 0c 6e be
       -0.7589015 -0.55034405 0.05610134 -0.23246999
000140 88 9f 02 bf 37 42 76 3f 26 9f a0 3e 8a ab c2 bf
       -0.51024675 0.96194786 0.3137142 -1.52086
000150 b4 9a 60 3e 94 36 9d be ef a7 a4 3e b1 05 0a bf
       0.21934015 -0.30705702 0.32159373 -0.53914934
000160 de 89 20 bf 1d 20 c6 be 0d 15 12 bf ef 69 85 bd
       -0.6271037 -0.38696375 -0.5706337 -0.06514346
000170 c2 ac 63 3f 5e df f2 3e d9 5c 76 3d f4 8e b8 be
       0.8893548 0.4743604 0.06014714 -0.36046565
000180 67 96 87 be ba 01 11 3e 52 23 8a 3e 45 9d 41 bc
       -0.26481935 0.14160815 0.26980072 -0.011817281
000190 70 86 8b 3e c7 93 55 3f c2 1c 39 3e 76 38 5e bf
       0.27251005 0.83428615 0.18077376 -0.868049
0001a0 ec b4 0a bf e0 6e 3b bf 76 fc e2 bd 37 53 24 bf
       -0.54182315 -0.73216057 -0.11083309 -0.64189476
0001b0 a0 e5 67 be 1f 9f 81 3d 05 8a 34 3e 6a db ab 3e
       -0.22646189 0.06329178 0.17630775 0.33565837
0001c0 31 00 e1 be 63 8b 31 3f 3f 6c 9a 3f 21 25 96 bf
       -0.4394546 0.6935331 1.2064284 -1.1730081
0001d0 2b 19 c1 3d 15 ed 31 be 11 d8 d1 3e aa 8a 22 3d
       0.094286285 -0.17375596 0.40985158 0.03968302
0001e0 5a 29 1c 3f 6d 1a 0c be c5 4c 8a 3e d2 88 22 3c
       0.610006 -0.13681956 0.27011696 0.009920316
0001f0 fa a1 1b 3f 7c 9b 44 bf 41 c0 45 bf b0 28 80 3e
       0.6079403 -0.7679975 -0.7724648 0.25031042
000200 d3 17 fe be 25 18 ec be 01 be c7 be 7b c2 19 bf
       -0.4962755 -0.4611217 -0.3901215 -0.6006238
000210 04 e6 97 be e9 b3 87 3d d6 22 81 3e 35 ea 05 3e
       -0.29667675 0.06626112 0.2522189 0.13077624
000220 49 69 b7 be 82 af 8f bc 48 92 04 3e 79 d3 f4 bd
       -0.35822514 -0.017539743 0.12946427 -0.11954398
000230 e1 ce 96 3c 29 b3 15 3f be 16 0b 3f 7d d3 5c bf
       0.018409194 0.584765 0.54331577 -0.86260206
000240 af e4 e6 bc 8a 26 b6 be 47 24 46 be d1 66 87 bf
       -0.028185217 -0.35576278 -0.19349776 -1.0578252
000250 9a 40 2e be 1e 12 38 be 05 85 1c bd 9e 3c 16 be
       -0.17016831 -0.17975661 -0.038212795 -0.14671561
000260 fb 28 28 be a2 4a 19 3f 81 87 b9 3d 5c f7 a9 bf
       -0.16421883 0.59879506 0.090590484 -1.3278613
000270 d1 f2 d9 3e 41 ec 0c bf 9b df 73 3e cf 23 b3 be
       0.42568067 -0.55047995 0.23815767 -0.34988257
000280 b1 bd 58 be 3a 68 25 bf a0 da 50 3e 6d 58 92 bf
       -0.21166112 -0.6461216 0.20395899 -1.1433235
000290 91 31 a6 be f2 cc 33 bd ad 0d 26 bd d0 eb 1e be
       -0.3245969 -0.043896623 -0.040540386 -0.15519643
0002a0 5f 6f 88 3e 4a dd 1e bf 36 be 90 3e f9 b6 15 3e
       0.2664747 -0.6205641 0.2827012 0.1462058
0002b0 00 1c 31 3e 86 68 7d bd cc 72 62 3e 8f 61 bb 3e
       0.17295837 -0.06186726 0.22114104 0.3659787
0002c0 72 3d 51 bc 46 b5 98 bf 98 a9 45 3f 46 97 2d be
       -0.012770997 -1.193032 0.77211905 -0.16952237
0002d0 01 48 68 bf 4e 22 b9 3d 6a db c7 3e 42 6f df 3d
       -0.9073487 0.09039746 0.39034587 0.109098926
0002e0 6d c5 24 3f a0 7a 5f bf e0 38 6b 3f ce 9e 20 bd
       0.6436375 -0.87296486 0.9188366 -0.039213948
0002f0 9a a6 84 bf e7 0c 70 be ce 09 d3 3e 23 99 8b 3e
       -1.0363343 -0.23442422 0.41218418 0.27265272
000300 16 f7 f1 be 42 40 4d bf 7d 78 06 bf 62 ce 8a bf
       -0.47258824 -0.80176175 -0.525276 -1.0844233
000310 80 c3 b7 3e 3c 21 37 3e f6 b8 8b 3d de 5d 5c 3d
       0.35891342 0.17883772 0.06822388 0.053800456
000320 34 4e 50 3d b3 9f 7b be a6 76 1e bf 05 a9 c9 be
       0.05085583 -0.24572639 -0.61899793 -0.39386764
000330 f6 0e f0 3a 8d a7 bf 3e a9 5a 66 3e f4 ea 82 3e
       0.0018315006 0.3743252 0.22495522 0.2556988
000340 38 8a 05 be 98 cb 2f bf c3 7a 77 3e 2f 59 8b bf
       -0.13041008 -0.68670034 0.24167924 -1.0886592
000350 61 c5 93 be b5 5b ac bd c2 34 0a bd ea c4 d4 bd
       -0.28861526 -0.08415929 -0.03374172 -0.10389121
000360 15 79 1c 3f d6 38 be bf 37 b0 9e 3f 6f 46 5c be
       0.61122257 -1.4861095 1.2397527 -0.21511243
000370 a3 7a 22 bf e1 8a d3 bc 1c a5 5a 3e f3 c7 76 3d
       -0.6346838 -0.025823059 0.21352047 0.06024928
000380 41 01 b4 3d 34 92 17 3f d2 71 91 bf f8 8e 8c bf
       0.08789302 0.59207463 -1.136286 -1.0981131
000390 d5 d4 e0 3d 38 44 7b be fd b9 2a 3e 82 72 a5 3e
       0.109780945 -0.24537742 0.16672511 0.32313925
0003a0 8b cc 14 3e 29 4b 80 be d5 9a 50 3f 8a ac 2a 3e
       0.14531152 -0.25057343 0.81486255 0.16667381
0003b0 38 df 6f bf d7 b0 c7 be 37 32 7b 3e 93 67 7d 3e
       -0.9369998 -0.39002106 0.24530874 0.24746542
0003c0 08 9e 31 be 4b 40 2d 3e e1 b8 02 be 4b bc 90 be
       -0.1734544 0.16919057 -0.12765838 -0.28268656
0003d0 62 3c d2 3e 40 20 40 bf 8a 67 4b bf 37 d6 e9 3c
       0.41061693 -0.7504921 -0.79454863 0.028544528
0003e0 3f cc 72 be 1e c9 10 bf 77 81 ba be b0 fd 4f bf
       -0.23710726 -0.5655688 -0.364269 -0.8124647
0003f0 7f 53 dd 3e 72 7b 02 3e 51 d4 27 bc 49 e0 4d bd
       0.43227765 0.12742403 -0.010243491 -0.050262723

fc1.bias f4 [64]
000000 3c 25 84 be e5 0a 69 3d 55 4b a7 bd 42 7c 31 be
       -0.25809658 0.056895155 -0.08168665 -0.17332557
000010 e8 50 81 be 3e ab 29 be e8 08 6f 3e 05 c3 9d bd
       -0.2525704 -0.1656923 0.23343241 -0.07703213
000020 50 46 e1 3d 18 19 5a 3e ec 20 49 3f 98 73 0d be
       0.10999739 0.21298635 0.7856586 -0.13813627
000030 c9 0e b3 be d4 7e 47 be 9c dc 09 3f cf 8d d6 be
       -0.34972218 -0.19481975 0.5385225 -0.41905066
000040 1a 63 00 bd 10 2c 9a be ed 82 65 3e db da 59 3f
       -0.03134451 -0.30111742 0.22413225 0.8509957
000050 6d 91 74 be 74 a3 cd be 6a 5e b2 be a2 89 c4 be
       -0.238836 -0.40163767 -0.34837657 -0.38386256
000060 db 7a 45 be 1c ea 98 be 63 42 68 be a1 59 86 be
       -0.19285147 -0.2986611 -0.22681575 -0.26240256
000070 9b cf aa 3e 72 c8 42 be 4c db 86 be 97 c3 29 be
       0.33361515 -0.19021776 -0.26339185 -0.16578518
000080 5c f0 c8 be b2 46 9e 3e f9 67 a5 3e cf 9b 8a be
       -0.3924588 0.3091331 0.32305887 -0.27071998
000090 47 ec 44 bd 81 7e 59 be 97 be ab be 80 1b 79 be
       -0.048076894 -0.21239664 -0.33543846 -0.24326897
0000a0 c8 e4 6e 3e 02 67 e0 be 48 a4 91 3e b7 c5 67 3e
       0.2332946 -0.4382859 0.2844565 0.22634016
0000b0 8b 60 90 3e 02 fa 6d bd c0 f6 b0 3e 98 62 df 3e
       0.28198656 -0.058099754 0.34563255 0.4362991
0000c0 8f 13 00 bc bb 0b 8e bc a6 72 df 3b 9f 46 9b 3d
       -0.007817163 -0.017339578 0.006819087 0.07581829
0000d0 e1 08 9e bd 50 f2 cb 3d c6 21 43 be b4 1f 71 3e
       -0.07716537 0.09958327 -0.19055852 0.2354725
0000e0 50 cc 69 3e e4 13 31 3e 6a 5f 08 3f da ef d1 3c
       0.22831845 0.17292744 0.5327059 0.025627065
0000f0 9c 85 c4 3d 5b bd ff bd fa 90 31 3c fd 03 99 3e
       0.095957965 -0.124872886 0.010837788 0.29885855

fc2.weight f4 [64, 64]
000000 af d7 65 3e aa 39 11 3e d1 2e 26 3e 92 1f 19 3f
       0.22445558 0.14182153 0.16228797 0.598138
000010 42 ae d4 bd 6c bd cb 3d ca a3 c1 3e d8 df 35 3d
       -0.103847995 0.09948239 0.37820274 0.044402927
000020 7c 11 a2 3e ef cd f7 3e 56 65 a4 3d ff c5 76 3f
       0.31653965 0.48399302 0.08027141 0.9639587
000030 80 ab d1 3e e8 cb 90 3e 43 32 1f 3d c2 4b 86 3e
       0.40951157 0.28280568 0.038866293 0.26229674
000040 23 78 51 bd bf 44 03 3f 27 ff c9 bc 1f 7e 36 3d
       -0.051139962 0.51276773 -0.024657799 0.044553872
000050 2b 48 11 3f 80 2c 49 3e fa d2 41 3f 06 c3 f6 3e
       0.56750745 0.19645882 0.7571255 0.48195666
000060 a0 1c a0 3e 77 10 32 be ff 98 56 3f 91 58 7f 3f
       0.3127184 -0.17389093 0.83827204 0.99744517
000070 f0 6f 28 be 05 47 05 3e c9 a8 1d 3c 95 f3 0e 3f
       -0.16448951 0.13015373 0.009622761 0.55840427
000080 c2 21 01 3f 25 77 8e 3e 1e b0 85 3e fd 3c 15 3f
       0.50442135 0.27825275 0.2611093 0.58296186
000090 e5 20 49 bf fa 59 80 3f 30 9d 35 3d e7 a1 9f 3e
       -0.7856582 1.0027459 0.04433936 0.3117821
0000a0 9b 26 0a 3e e9 d1 b5 3e d0 b6 a6 3e 10 8c 59 bd
       0.1349129 0.3551171 0.3256135 -0.05311209
0000b0 55 e3 e7 3e f3 9c cc 3e 9f 05 d4 3e 6f 36 6e be
       0.45290628 0.39963493 0.4141054 -0.23262952
0000c0 5a 10 d5 be ae 3c 97 3e cd 48 14 3d f9 03 5e be
       -0.41614038 0.29538482 0.03620224 -0.21681203
0000d0 03 88 41 3e 6c ac 38 bf b2 eb 41 3e 2b 5c 89 bf
       0.1889954 -0.72138095 0.18937567 -1.0731252
0000e0 37 ca de be 3a 18 ca 3e f9 bc d3 bd 10 c3 d5 be
       -0.43513653 0.39471608 -0.10338778 -0.41750383
0000f0 05 9d 9d 3e 53 0a 55 3c 1a 67 40 be f2 e0 62 be
       0.3078386 0.01300295 -0.1878933 -0.22156122
000100 44 12 8b 3e 7b 3c b3 3e 49 53 48 3e 27 04 93 3e
       0.27162373 0.3500708 0.19563021 0.28714105
000110 98 38 60 bd 64 06 e0 3e c2 09 e7 3e 07 46 55 3d
       -0.054741472 0.43754876 0.45124632 0.052068736
000120 c1 5e af 3d d4 c9 8f be 70 eb 8b 3e cf 26 45 3f
       0.08562995 -0.2808367 0.27328062 0.7701234
000130 6c 43 23 3f 03 5c 20 3e 69 be 6e 3c 15 bc 08 bf
       0.6377475 0.156601 0.0145717645 -0.5341199
000140 e6 46 a3 3e 4b 30 f8 3e 13 b4 26 3d b2 6f 82 3d
       0.3189003 0.48474345 0.040699076 0.063689604
000150 57 72 6a 3f 8d 78 81 3d ea 4b 46 3f 35 83 96 3e
       0.9158072 0.06321821 0.77459586 0.29396978
000160 a7 7e 14 3f 10 5e 03 3e 09 96 77 3f 05 18 26 3f
       0.58005756 0.12828851 0.9671331 0.648804
000170 a1 c0 d4 3c 32 5b a0 3e b7 2e 2c bf 03 aa 54 3f
       0.025970759 0.31319577 -0.6725878 0.8307192
000180 2f 55 37 3f 58 4e df 3e 84 14 d4 3e 02 f7 47 3f
       0.71614355 0.4361446 0.41421902 0.7811128
000190 49 ce 1c bf 30 96 2e 3f ca 4f af 3d 76 d9 19 bd
       -0.61252266 0.6819792 0.085601404 -0.037560903
0001a0 d9 ec ad 3e 4f a1 af 3e 32 8d fb b8 8c 30 8c bd
       0.33969763 0.34302756 -0.00011994912 -0.06845197
0001b0 02 bc 43 3f 60 47 e7 3e e7 c2 1c bf 0e e2 d9 ba
       0.7645875 0.45171642 -0.612349 -0.0016623156
0001c0 dd 9c 6d 3e 23 35 0c 3f b4 5e b6 be 3a db ed bc
       0.2320437 0.5476858 -0.35619128 -0.0290352
0001d0 d9 e1 d5 be ac b9 80 be d8 82 d8 3e 02 c0 a6 bf
       -0.4177387 -0.25141656 0.42287326 -1.3027346
0001e0 de 7b fa be 5a 96 8e 3e 78 40 f8 bd f4 e1 3f be
       -0.48922628 0.27849084 -0.121216714 -0.18738538
0001f0 3c 2b 0d 3f d7 6b cf 3e 79 27 14 be 4a 20 55 3c
       0.55144095 0.40511963 -0.14468183 0.013008187
000200 82 3c 06 3f 41 ec 82 3e 9e d1 c0 bd 49 bb f2 3e
       0.5243608 0.25570872 -0.09414981 0.47408512
000210 d7 3f 28 be 0a de a5 3e e4 98 06 bf db 1a 1e be
       -0.16430603 0.32395965 -0.5257704 -0.15439932
000220 9c 9e e4 be b5 59 24 3c fc e3 93 3e fd e3 c7 bf
       -0.4465226 0.010031153 0.28884876 -1.5616452
000230 55 66 88 bf ec 13 de 3d af 67 d4 3e 9b d2 43 bf
       -1.0656229 0.108436435 0.41485354 -0.76493233
000240 2b ec b5 3b 87 41 40 bf 31 b6 00 be f4 d2 93 bc
       0.005551835 -0.75099987 -0.125695 -0.018044926
000250 d9 75 33 3e 08 c8 99 3b 33 f8 93 3e b9 3b 03 3d
       0.17525424 0.004693035 0.28900298 0.032039378
000260 e6 88 1f bf 8f 5c 85 3c d0 8c a2 3d 0f 17 3e 3e
       -0.62318265 0.016279487 0.07937014 0.18563484
000270 6b c8 c5 be 0f 04 53 3d b2 16 9f bf 68 30 6e be
       -0.3862947 0.051517542 -1.2428801 -0.23260653
000280 9b 23 db 3d 0e b2 9e 3f 99 e7 ac be 5f 6a 87 bf
       0.107001506 1.2398088 -0.33770445 -1.0579337
000290 18 e8 d4 bf aa 6d 11 3f cc f7 ca 3d 65 5b af 3e
       -1.6633329 0.5680796 0.09910545 0.34249416
0002a0 cb f6 6b be 0d c7 17 3e 2b 2f c9 3e 25 89 38 3f
       -0.23043363 0.14822026 0.392938 0.72084266
0002b0 46 eb 85 3f 50 c3 74 bf fa 62 21 bd b7 6a dd 3d
       1.0462425 -0.95610523 -0.039401032 0.1081137
0002c0 1c 60 39 bb 4c 67 21 3f 1c 2f 3a bf 3f b0 04 be
       -0.0028286045 0.63048244 -0.72728133 -0.12957858
0002d0 1f ee 94 be 1b 1a 9d 3c 7e 11 33 bf 37 6c 30 bf
       -0.29087922 0.019177487 -0.69948566 -0.6891512
0002e0 83 27 d1 bd 6e 05 ae be da ca bf bc 3e e1 cf 3e
       -0.102126144 -0.33988518 -0.023412157 0.40601534
0002f0 b3 fa 39 bf b6 c9 51 be e1 36 b1 bd f7 3a 24 3f
       -0.7264816 -0.20487103 -0.086530454 0.64152473
000300 50 6a 82 3c 58 f7 83 3e 18 a0 32 3e ee a4 8b 3e
       0.015919834 0.25774646 0.17443883 0.2727427
000310 db 7b 80 3e e7 93 b1 3e cc d1 0d 3f 66 0a 8a 3d
       0.25094494 0.34683153 0.5539825 0.067402646
000320 f5 4f 19 3f 34 82 83 3d 4f 81 0e 3e f2 cb ff 3e
       0.5988763 0.06421319 0.13916515 0.49960285
000330 9f 2c 97 ba a3 be 90 3e a6 13 a7 3d 16 37 26 3f
       -0.0011533684 0.28270444 0.081580445 0.64927804
000340 81 68 83 3e e3 bf 03 3e 3c d1 df 3d 7e f8 51 bd
       0.25665668 0.12866168 0.1092858 -0.05126237
000350 23 7e 19 3f 3e 57 67 3e ab 99 fe 3e f5 d9 94 3e
       0.59958094 0.22591874 0.49726614 0.29072538
000360 3d 36 5f 3f 8c b8 3f 3d c4 40 3e 3f 71 46 23 3f
       0.87192136 0.046806857 0.74317575 0.6377936
000370 98 4e c0 bd 74 e6 9f 3e 17 f6 c8 3e e3 16 0e 3f
       -0.093899906 0.3123051 0.39250252 0.5550367
000380 5e e9 0a 3f dc 9c a4 3c 17 52 fc 3e d6 c8 0b 3f
       0.5426234 0.020094328 0.4928138 0.54603326
000390 f8 e0 85 bf 01 f4 1b 3f 06 90 fe 3d 44 1c 5c be
       -1.045928 0.60919195 0.12429814 -0.21495157
0003a0 b3 22 30 3e da ce df 3e c6 5c 0f 3c 04 a1 33 bf
       0.17200737 0.43712503 0.008750146 -0.70167565
0003b0 2f e8 a9 3e b5 ad b0 3d 7e 8b 03 bd 4b 09 c5 3d
       0.33184955 0.08626882 -0.032115452 0.09620913
0003c0 1a 72 3c bf 23 36 22 3e 50 90 ee 3d e4 8f 7d be
       -0.73611605 0.15840964 0.11648619 -0.24761921
0003d0 67 6a eb 3e 9a 12 24 bf 35 eb 24 3f 30 d8 3a bf
       0.45979616 -0.64090884 0.644214 -0.72986126
0003e0 0f c6 32 be 90 33 0d 3f 6a 30 db 3d 73 9d e6 be
       -0.17458366 0.55156803 0.107025936 -0.45042
0003f0 3b 4b 0c 3f 62 2f 83 3e 68 9f 80 3e 2e b8 ba be
       0.5480229 0.25622088 0.25121617 -0.36468643

fc2.bias f4 [64]
000000 54 da fe 3b 98 de 64 bd 6d 5a 31 3e ab 22 1c 3e
       0.0077774916 -0.055876344 0.17319651 0.152476
000010 90 e4 d9 3d 82 01 6a 3d 1f ae ed 3e e9 d0 8c 3d
       0.10639298 0.057130344 0.46421906 0.06875784
000020 04 ca 57 3c 01 30 d8 bd 0a d1 28 bd 84 d4 98 bd
       0.013170723 -0.10556031 -0.04121498 -0.07462409
000030 61 44 3a be 2e c1 5b bd f3 3f 99 3e 4c b5 80 3f
       -0.18190147 -0.053651027 0.29931602 1.0055327
000040 93 6f 83 3e 20 23 3d be e3 a3 aa 3e 5e fe 1b 3c
       0.25671062 -0.1847043 0.3332816 0.009521095
000050 c6 4d 04 bd a3 3e 91 3c 65 6a 3a 3c 7d de e2 bd
       -0.032300733 0.017730063 0.0113779055 -0.110775925
000060 b2 4d 91 bd d2 d3 03 be b5 81 e3 bd a6 4b 45 be
       -0.07094897 -0.12873772 -0.11108724 -0.19267139
000070 5b a7 33 3d 39 c0 0c bd 74 b0 66 3e 8c 94 d9 3e
       0.043860774 -0.034363005 0.22528249 0.42496145
000080 9d 4e 25 bb bd 4a 09 3e e0 69 c6 bd 04 d4 d8 bd
       -0.002522386 0.13407417 -0.09688163 -0.10587314
000090 b6 09 ad 3d 80 10 83 3c 91 b6 fc 3e 80 db f9 3d
       0.08449118 0.015999079 0.49358037 0.122000694
0000a0 f7 71 31 3c 27 81 3e bd a5 a3 91 3c 9c 59 d1 3e
       0.010830394 -0.046509888 0.017778227 0.4088868
0000b0 a8 0b e0 bd ab 22 79 3d bf 6c e7 bd 16 31 bb 3c
       -0.10939723 0.060824078 -0.113000385 0.022850554
0000c0 8c a1 1b bd 00 e8 85 bd eb 6a 48 3d 68 00 b6 bd
       -0.03799586 -0.06538391 0.04893009 -0.08886796
0000d0 52 87 3a 3e 23 fa c9 3c c5 d3 d6 3d 64 e9 0b be
       0.18215683 0.024655407 0.104896106 -0.1366325
0000e0 2c e3 ac 3d 7a 81 02 3e c0 74 09 be dd 9c 9d 3c
       0.08441767 0.12744704 -0.13423443 0.019239837
0000f0 af 9f dd bd c9 5f 0c bd d7 fc 64 3f c4 83 ba 3b
       -0.10821473 -0.034271035 0.89448303 0.005691977

fc3.weight f4 [4, 64]
000000 a6 5b 2f bf a7 15 d6 be d0 65 ed 3d 15 0c bf be
       -0.6849922 -0.41813394 0.11591685 -0.37313905
000010 72 6a 8f be 49 dd e3 be 66 1a 3f 3f 5c 40 b0 be
       -0.280109 -0.44504765 0.74649656 -0.34424102
000020 b8 03 c7 bd 13 3d 8f 3c dd 48 d6 be 92 ff 4b bd
       -0.09717506 0.017485177 -0.41852465 -0.049804278
000030 f5 0e 8f bf 23 87 db be aa 4a 08 40 ec 1f cd 3f
       -1.117644 -0.4287654 2.1295571 1.6025367
000040 73 0e b4 3f 07 fc 25 bf 6b b7 34 40 3a 91 ad be
       1.406691 -0.6483769 2.823695 -0.33899862
000050 fb 25 8b be 15 7e 2d 3e e2 0a 79 be 3b b4 b3 bc
       -0.27177414 0.16942628 -0.24320558 -0.021936527
000060 3c 25 d0 be ba 44 ce 3d 06 52 7a 3e ac 83 e3 be
       -0.40653408 0.10071702 0.24445352 -0.44436395
000070 ff 33 d3 be 44 3f 15 bf e8 55 2a 40 aa 2d 26 3f
       -0.41250607 -0.5829966 2.6614933 0.6491343
000080 8f d7 02 bf 8b 13 6b bf 06 5e bd be 68 40 dc bd
       -0.51110166 -0.91826695 -0.36985797 -0.10754472
000090 68 10 7f be d3 f8 ca be 17 64 0c be d9 55 5b bf
       -0.24908602 -0.39642963 -0.13710056 -0.8567787
0000a0 99 60 a7 be f0 e5 ae be d5 75 a2 be 35 6e c1 3f
       -0.32690886 -0.34159803 -0.31730524 1.5111758
0000b0 13 27 ca 3c d6 3f 85 bc 35 da 64 3d 93 fe da be
       0.024676835 -0.01626579 0.05587216 -0.4277235
0000c0 31 ed e1 be 48 35 a2 be 20 a5 ac be b6 7f d0 be
       -0.44126275 -0.31681275 -0.3371973 -0.40722436
0000d0 e3 bd 00 be 80 da d8 be ef ce 8f be f8 a4 0f 3d
       -0.12572436 -0.42354202 -0.28087565 0.035069436
0000e0 27 04 ee be cd d4 eb be 97 86 c6 be e3 4b 8c be
       -0.46487543 -0.46060792 -0.3877456 -0.27401647
0000f0 27 0c 00 bf 61 3d b8 be cf 9e d1 3f 1b b8 d7 be
       -0.50018543 -0.35984328 1.637659 -0.4213265
000100 46 f9 7b be 63 8f 04 bf 13 01 3d 3f aa 31 0c bf
       -0.24606809 -0.5178129 0.73829764 -0.5476328
000110 7d 3a a1 be 5b 03 0e bf ed 41 57 3d e1 20 21 bf
       -0.31489936 -0.5547387 0.052553106 -0.62940794
000120 2a fc e3 3d 3e d9 a3 bd 8e 3a 21 bf 4e 64 c9 bd
       0.11132081 -0.0800042 -0.6297997 -0.09833585
000130 d3 7d 6c be a0 df 81 be ec a8 1d 40 b3 05 b2 3f
       -0.23094873 -0.25365925 2.4634352 1.3907989
000140 ba 47 d5 3f b6 71 bc be 10 82 27 40 fb 5d 14 bf
       1.6662514 -0.36805505 2.6173134 -0.579559
000150 81 09 a4 be 06 e5 78 3d ad 09 af be f6 72 4e bd
       -0.320385 0.06076529 -0.3418707 -0.050402604
000160 ec e6 05 bf 68 7c 8f 3d 7c ac d8 3e ac 0d e3 be
       -0.52305484 0.070061505 0.42319095 -0.44346368
000170 31 85 fc be 97 d0 09 bf e7 fc 15 40 1f ce 8f 3f
       -0.49320367 -0.5383391 2.343561 1.1234778
000180 e3 54 e6 be c1 7c 0d bf 77 aa 02 bf cc 87 ff 3d
       -0.44986638 -0.55268484 -0.5104136 0.12477073
000190 60 77 24 bf 99 ab 19 bf 00 d8 02 3f 17 e0 5f 3d
       -0.6424465 -0.6002746 0.5111084 0.054657068
0001a0 2e b7 27 bf 4a f4 45 bf d0 f6 f7 be 89 63 c6 3f
       -0.65513885 -0.7732588 -0.4843049 1.5499126
0001b0 2a 4b 95 bd d2 38 e9 ba e7 e0 90 3d b4 a8 ea be
       -0.07289727 -0.0017793423 0.07074147 -0.45831835
0001c0 a0 9a 05 bf 24 11 16 bf 56 28 07 bf 5a 01 a1 be
       -0.52189064 -0.58619905 -0.5279592 -0.31446344
0001d0 ce c2 b4 be 5e 2b b4 be 77 30 0c bf 24 df 82 bb
       -0.35304874 -0.35189337 -0.5476145 -0.0039938856
0001e0 62 a3 0a bf 5c d4 ab be e4 23 0c bf 6b 14 f3 be
       -0.5415555 -0.33560455 -0.54742265 -0.47476515
0001f0 7e 3b 2c bf 3b fa 9f be f2 0d ba 3f 36 45 f5 be
       -0.6727828 -0.31245598 1.4535506 -0.47904366
000200 6b 05 37 bf 7a 67 0b bf c9 0a 4f bf e7 4a 55 be
       -0.7149264 -0.5445477 -0.8087583 -0.20829354
000210 e1 75 90 3e 15 7c 8d be 08 86 b7 be b1 03 01 bf
       0.28214934 -0.2763373 -0.35844445 -0.5039626
000220 4c 08 af 3d bb 3e 79 3d 6d 89 c8 be 76 45 a4 3f
       0.085465044 0.06085084 -0.39167348 1.2833698
000230 5d 1a 53 3e a9 63 46 bf 56 f6 35 3f 20 ab c8 3f
       0.20615526 -0.7749582 0.71079004 1.5677223
000240 fc 03 62 3f 89 39 02 bf fb a1 df 3f 2e c6 f4 be
       0.8828733 -0.5086904 1.7471308 -0.4780745
000250 65 a7 56 3e c2 2b 43 3f cb 84 18 bf b2 e7 83 3c
       0.20962293 0.76238644 -0.59577626 0.016101692
000260 3d 64 e3 be 2a 8c de 3d 62 d7 18 be 83 21 43 bf
       -0.44412413 0.10866578 -0.14925912 -0.7622301
000270 97 6b 05 bf d4 1f bc be 13 42 23 40 dd 9b 77 3f
       -0.52117294 -0.36743033 2.5509079 0.96722203
000280 f0 73 de be f8 f6 0c bf f1 89 b2 be 90 32 4f bd
       -0.43447828 -0.55064344 -0.34870866 -0.05058533
000290 d2 cd 17 be 7d 1c ec be 65 8d 1a 3f 3a cc 16 bf
       -0.14824608 -0.46115485 0.60372 -0.58905375
0002a0 8f 6a ea be f5 90 3f bf 58 58 ee be 58 bf b0 3f
       -0.45784423 -0.7483056 -0.46551776 1.3808393
0002b0 f9 1e 7f 3c 87 3e 19 bd a6 96 92 bd 01 38 f4 be
       0.015571349 -0.037413146 -0.0715764 -0.47698978
0002c0 81 7f b5 be ce 3e fd be fb 82 20 bf 45 c2 29 bf
       -0.3544884 -0.4946198 -0.6269986 -0.66312057
0002d0 88 28 6e bf 02 d4 22 bf 94 31 ab be e0 0e 29 3d
       -0.93030596 -0.6360475 -0.33436263 0.04127395
0002e0 67 49 fa bd e7 1d 07 bf d3 f0 0a bf ce 09 40 bd
       -0.12221032 -0.5278 -0.5427372 -0.04688435
0002f0 e9 08 b0 be 3a 7b 82 be a0 cc ce 3f 86 e5 02 bf
       -0.34381798 -0.2548464 1.6156197 -0.51131475
000300 57 b4 ae be fc af 74 be 20 8b 8d 3e 7d 41 01 bf
       -0.34121963 -0.23895258 0.27645206 -0.5049055
000310 19 7d 5b be 2c a8 cf be e2 c1 db 3f e8 7e 16 bf
       -0.2143444 -0.40557992 1.7168543 -0.58787394
000320 22 07 0a 3b 90 d6 53 bc 04 9f b3 be 23 80 e2 3e
       0.002106138 -0.012929574 -0.35082257 0.44238386
000330 82 c0 ca be 9c b5 36 bf 33 54 b3 3f 7b 44 fd 3f
       -0.39599997 -0.71370864 1.401007 1.9786524
000340 9a b3 e8 3f ff a0 a0 be a0 e4 15 40 fd 38 ed be
       1.817981 -0.3137283 2.3420792 -0.4633254
000350 64 40 79 be 78 21 8d bd 39 6d f8 be 40 2d 4f 3b
       -0.2434097 -0.06891149 -0.4852083 0.0031612664
000360 40 98 c9 be df 13 a3 3d d0 a5 1c be 87 a4 05 bf
       -0.3937397 0.079627745 -0.15297627 -0.52204174
000370 8a 11 f4 be a5 7e f8 be 07 ab 46 40 cf cd 44 3f
       -0.4766963 -0.48534122 3.1041887 0.7687654
000380 4a 49 c9 be 5e 84 ae be ef c7 fe be a4 61 9b bd
       -0.39313728 -0.34085363 -0.49761912 -0.07586983
000390 52 63 82 be 88 af d3 be 75 ee 22 bf 1d 5c 39 bf
       -0.254664 -0.41344857 -0.63645107 -0.7240618
0003a0 e1 a8 c3 be e4 68 ca be c8 5f ca be ef 5e 6d 3f
       -0.38214782 -0.3953315 -0.395262 0.9272298
0003b0 d1 70 d2 3d f3 43 88 bd 1a 5b 60 3d 2a 43 12 bf
       0.10275424 -0.06653585 0.05477438 -0.57133734
0003c0 e7 44 d7 be bc a4 8a be 84 e3 03 bf a1 1a c2 be
       -0.42044756 -0.27078807 -0.51519036 -0.3791094
0003d0 a9 4d be bb bc e0 4c be 33 7c 06 bf 40 c0 76 3c
       -0.0058075977 -0.20007604 -0.5253326 0.015060484
0003e0 23 50 39 be b1 d5 30 bf 4d 63 fe be 15 bb e0 be
       -0.18096976 -0.6907607 -0.49685135 -0.43892732
0003f0 91 23 a7 be 05 f4 34 bf 20 c0 c8 3f 26 70 b4 be
       -0.32644323 -0.70684844 1.5683632 -0.35241812

fc3.bias f4 [4]
000000 92 96 b1 3d 2e 55 21 3e 1d 84 f3 3e b4 fa db bd
       0.08671297 0.1575515 0.47561732 -0.10741177
